weights_final.npy (npy, 26896 bytes, 1 tensors)

array f8 [3346]
00000000: 3a35 aaa5 7528 0340 a910 8b25 e931 fc3f
00000010: c1bb 289d 8799 e3bf 8cf3 7204 b2a3 1e40
00000020: 8f2f 84c6 1a74 03c0 145d deea 0d5f c4bf
00000030: 503a 22ca 7e64 16c0 70e1 5df9 741e 1640
00000040: c09c 6532 a066 1840 0c1c bcce 5a25 12c0
00000050: c7cf 31fc e553 29c0 08eb 1aa0 f78b 1bc0
00000060: 0204 22a4 f709 0640 175b d9fe 151c f33f
00000070: da1b 302f 8c3f 1340 ff9f 1ebe b0d5 e3bf
00000080: 9695 8901 5ff3 1d40 912f 6056 a960 eb3f
00000090: 2053 b3a4 a5c5 ee3f 343b 7540 7ee7 15c0
000000a0: 0a8c 4991 3e99 1440 6f82 4a9f 9ab6 02c0
000000b0: 23c8 4b93 2832 1f40 c38f b7b1 e15d fdbf
000000c0: 7e2e 863d 9be7 1040 3d8d c408 9dc4 f03f
000000d0: c6a5 01ad 9cda 10c0 1c6f 5b1b 3e51 0e40
000000e0: 5e77 ea2f 839c 0240 6f3c 17a4 73a5 1340
000000f0: b961 e5de e018 1240 9ed6 a770 3fc5 f7bf
00000100: 7811 2354 2a1a 1540 5cf2 3d52 07f5 df3f
00000110: 94a1 d8ed 63dc 1ec0 aa63 6798 1934 12c0
00000120: caf5 b6cd 2f2d 1140 1e06 c32f 7315 2a40
00000130: 90de c9ff 9f24 f7bf 0756 2654 9aaa 1440
00000140: 00e4 51db b831 23c0 2ffd cbde 38c7 0c40
00000150: 73ac fede 5381 1a40 dcd1 6dbe d982 d93f
00000160: 16b6 5d41 cac6 00c0 7eaa fdc1 d86c e83f
00000170: 00c4 50fe 72cc c5bf 60e6 ea57 4a27 01c0
00000180: 01af 1c46 90f8 0cc0 8038 bb31 11d8 1640
00000190: db0b f5cd d85b 05c0 2c17 614a 2aa9 f0bf
000001a0: 1fa3 85f9 c228 13c0 6a8b dbf5 98f4 26c0
000001b0: dfc7 3541 ffd5 f0bf f0bc 7087 384e 0cc0
000001c0: a9d8 e8ff 5824 1ec0 72cb 1e8d c819 e13f
000001d0: a05a 5cc7 0bfa f23f eb29 8439 3f62 febf
000001e0: b6f0 dcd2 6d05 f8bf aa53 5722 2b5c e2bf
000001f0: d9cf 1ce2 8d17 ecbf fd2d 1d0e 8a61 13c0
00000200: 2884 4d2d ae98 febf a2cf 4ff2 8531 fb3f
00000210: e1b2 651e 3dcf 13c0 7dec 2cab d2fa 14c0
00000220: 44d3 163b 11fa f93f 4890 2bad 50e6 f23f
00000230: 31ce 83c9 f5a8 17c0 f6a3 a799 8885 09c0
00000240: aa3e a6fb 2f3a f93f b708 5e31 3be6 18c0
00000250: 3a43 8ba8 7634 1040 ec4d c1f9 0a5d c6bf
00000260: a9b4 84bd d8af 1640 eff9 6566 a75b f73f
00000270: 7652 2aa9 b2a1 0d40 6aae cbf6 37c8 f43f
00000280: 332c 0b80 d05e 0ec0 97a1 fb87 8a2f 1840
00000290: ab65 90fe 81d8 f9bf 65a2 916f d28c 2940
000002a0: deea fb60 b475 fb3f 1f0b 39a0 f979 e1bf
000002b0: 7e1b 2bd5 6429 1440 60ff 99f8 3bb5 23c0
000002c0: 20a6 a2c3 71ea e43f 1241 e35c ec54 1040
000002d0: 32b5 aba5 f5c7 d13f fab9 0859 1d81 0640
000002e0: 569d 9293 afed 14c0 a186 0db0 5ce1 0ac0
000002f0: 061c 424c 33dd f3bf 19c9 6937 04eb f13f
00000300: dff0 1cc6 aff2 20c0 799c 0bf6 3723 0340
00000310: 6682 7a84 6a84 1240 dde5 0fd7 cb27 1b40
00000320: 75c1 55b3 b13e 1440 b0eb cc76 e0b2 1640
00000330: ee07 c7cf 47dc f0bf 18be e19a 4c53 1340
00000340: 246f f8ee 7a94 ccbf 020c 6635 5f30 0c40
00000350: bf8a d3f8 d3a5 f9bf 7334 2e64 f4c2 21c0
00000360: 683c de68 e738 f53f f3fa fde5 f107 f13f
00000370: 90d6 8c7d 8a35 debf ac75 9b6f a1df 1a40
00000380: 0ea3 04cb be98 05c0 5c93 451f 01d3 0140
00000390: 725c b484 53b2 0740 4faa 30cd 7d5b e03f
000003a0: f36e 5633 4902 17c0 0e21 8ec9 88e4 e43f
000003b0: 4122 06bd 51cf 0a40 e657 5e97 3d9d 0440
000003c0: 9732 8e0d 3584 10c0 b8fe ec60 9c26 ec3f
000003d0: 1272 9c31 2c43 2740 1c46 65ba a5cc 21c0
000003e0: 77f0 a78f d138 0fc0 d4bf 81a2 3a74 25c0
000003f0: 7c55 ae38 cc62 fbbf 5aaa 9c8d b779 1dc0
00000400: e98c e821 9d5c ffbf 6cfa 730d 3b75 21c0
00000410: cecd d77b f0a0 d63f 198c 7b12 3ce2 00c0
00000420: b6a6 bb65 c8be db3f 3e69 091f 8d97 fdbf
00000430: b080 967a 1784 11c0 9015 5948 f89e b73f
00000440: 3305 1a45 b8f3 f3bf 9b30 ffe7 8508 16c0
00000450: 418b aadd 27a4 01c0 7c27 f6ce 7071 10c0
00000460: ce13 1334 f2f3 0f40 4854 0e9c 6d00 0740
00000470: 06ac b40c 722e 02c0 ddae 1bbd e78a f6bf
00000480: 24b3 2784 fbe1 0cc0 7af0 110a ad86 f03f
00000490: 2cc7 0140 71e3 0940 e4fb b0c9 ced8 f93f
000004a0: a049 06ff aebd f2bf 8616 b85c fb90 01c0
000004b0: e3e7 d93d 4413 1cc0 6287 9457 8a18 f23f
000004c0: de5b 8c57 0929 1240 8163 eaf1 3097 0d40
000004d0: c002 ccd0 9c35 0440 0f81 b1f4 e465 13c0
000004e0: 377f 0f0e 5c56 0740 9d29 ddd9 b537 1940
000004f0: 80e8 b650 edb1 d83f ccb4 288e 41be 1040
00000500: 2228 5190 a588 1bc0 b053 21b3 be13 adbf
00000510: 8f6f a9a3 22fb 0d40 3927 30c1 ec0d 1240
00000520: 2ab5 2344 678a dd3f d909 26bb 0add 1340
00000530: 9339 d24a c1d3 1e40 aacb d6e0 5439 09c0
00000540: 50db d2ec 263d 2b40 e109 cbaa 51b7 10c0
00000550: f632 9f6f 0241 eb3f 64cb e06e 6571 f4bf
00000560: 6032 50a6 3d66 f0bf f954 5568 ac5c 2040
00000570: 5d13 68d8 b7ec 10c0 030e e572 1b2d fcbf
00000580: 61d4 23c2 06bd 1ac0 f833 0db1 2ccc 1fc0
00000590: a4e6 9e1d e7d9 0840 4c28 dfa8 381f 18c0
000005a0: 5809 69a8 343b a83f c1e6 75c7 8c32 f33f
000005b0: 719e 7124 1cb5 0c40 ea3a d3a6 4519 06c0
000005c0: 5c01 9b29 e708 1c40 0c82 a746 6a74 f3bf
000005d0: ccb2 1648 de03 1340 86a1 b947 7fb1 0fc0
000005e0: d927 f2d9 12c5 f23f 2b47 1673 498d 0a40
000005f0: 1353 9bb1 7999 1fc0 f3c6 fba9 ebcd 0240
00000600: f06e 4ad2 a000 27c0 2639 fe31 61c5 1f40
00000610: 0792 236f fd90 19c0 dc69 6364 1fd4 1ec0
00000620: f453 6187 f51a eabf f927 faf4 a6e8 f83f
00000630: 323a 67af 60db 14c0 561f ca08 5967 d2bf
00000640: e553 da3f f73a 2440 3ec7 619f d983 1640
00000650: 33b3 97fa 1dbc 08c0 c2c4 7ba5 ea93 1a40
00000660: 02f1 9854 10dd f6bf 0da1 e7e9 fbaf eb3f
00000670: b4d1 69b1 773a 09c0 5caa 26a4 b60a fb3f
00000680: 17f0 02d1 791b b5bf c87a e3be a3f7 1440
00000690: 0c63 c69c e584 d5bf 0881 a256 ceb6 f9bf
000006a0: 7c7c a54a 2e40 e53f c6d0 8d2a 38a7 09c0
000006b0: c2a5 cd28 5202 0ac0 8f57 86a0 e567 fb3f
000006c0: 8e03 82f2 9e99 0e40 3ada 30a0 4e86 f13f
000006d0: b577 ceee 3407 e23f 747c 08a6 685c 0ac0
000006e0: 364b 9022 1c3b 0ac0 adf6 d751 29a3 08c0
000006f0: b91d 2425 ef68 06c0 35ca 295d 85ba 00c0
00000700: a23e d46d 201b 20c0 f263 02e9 bade 0ac0
00000710: 461b 5f75 5d95 ff3f 9c35 73b4 31ec e5bf
00000720: 668a 055c 862e 0a40 5e77 0bec d92a 01c0
00000730: 1eb0 91d9 513f 05c0 349c 6d85 541a f5bf
00000740: f7cf fb0d fb1f 1fc0 6cc4 9747 3fc7 f1bf
00000750: 2c82 6a37 8e3f 0440 c315 6192 218d 1bc0
00000760: 415f 476f 9f16 0440 f6fa 672c ef6d 2240
00000770: 6d31 6c44 35dc 05c0 6734 3648 3a2c 2640
00000780: f320 2d23 fe9b 0040 d209 b884 ba57 0a40
00000790: f139 fee5 e872 2b40 7813 4faa 3cf9 ec3f
000007a0: 333b 62f0 b62c 0440 442f 44fa 23bc ff3f
000007b0: db6f 8e31 1bd4 0d40 3965 f2bf ddc6 15c0
000007c0: 809b 0f15 a3bf f33f 5231 bf9b 1b22 20c0
000007d0: a732 f8cd a5c5 1740 663a 5650 3b47 18c0
000007e0: 1405 c866 618e 1340 1e3b 8f15 c0d6 e43f
000007f0: 56f8 082b 1ae0 f73f 119a 8bdf 32c4 f53f
2.39475564408954 1.762185236600127 -0.6124914235605204 7.6598587699089755 -2.4316916951265237 -0.1591508290118574 -5.598139913882349 5.529743095736521
6.100220477535174 -4.5364792158425296 -12.663864022331735 -6.8866868034772395 2.7548668692475085 1.1943569140473238 4.812058198272064 -0.6198352540277482
7.487667106649857 0.855549496367063 0.961626836472167 -5.476067549853543 5.149652738679842 -2.33916210600028 7.798982907772401 -1.8354203168937466
4.226178132357402 1.048001322030202 -4.213488295770224 3.7896692406919907 2.3264220946720533 4.9115739478285 4.524295313597059 -1.4856562042818164
5.275552096023937 0.49933035880511567 -7.715224949214093 -4.550878888426192 4.294127668659209 13.041894428784016 -1.4464416496029209 5.166604342307898
-9.597113469835676 3.5972764402391912 6.626296505254788 0.3986114844949762 -2.097065458938924 0.7632869519123486 -0.17030179422138758 -2.144184767585827
-3.6213689305785697 5.711003090908093 -2.669847115555496 -1.041300097030624 -4.789806269437377 -11.477729495096089 -1.0522453830021659 -3.538193758132927
-7.53549575670892 0.5343973881011677 1.1860463893441775 -1.8989860769967162 -1.5013254391515551 -0.573751036713124 -0.8778752723942446 -4.845253201037392
-1.9122754830971278 1.6995906319907381 -4.952381586987685 -5.244944262139254 1.6235515888376577 1.181229282804468 -5.915000103635564 -3.1902019504818737
1.576705916409916 -6.224835177769072 4.051233895778575 -0.17471444315979967 5.671725236153329 1.4598764419494008 3.703954049686497 1.2988814964727688
-3.7962961200151084 6.046426892026282 -1.6153583473118072 12.775042997863418 1.7162364757957032 -0.5461395387031621 5.040423708683077 -9.853973168180971
0.6536187001231077 4.082932902689452 0.277829562938524 2.8130442577159984 -5.232115083526272 -3.360040069020059 -1.2415039995992188 1.1198770680026142
-8.473997298271966 2.3921965811055625 4.629312581994418 6.788863525719958 5.0612247487155075 5.674684387452473 -1.0537794224078385 4.831346912410957
-0.22328125637511065 3.5236190959708447 -1.6029853553560967 -8.88077080787682 1.3263925644312398 1.0644396766726316 -0.472017881972854 6.718389266837601
-2.699582658843048 2.2280294840915484 2.9620733611623615 0.5111683852786174 -5.752232362890697 0.6528972565293161 3.351230122327508 2.5767776323000247
-4.129108630947164 0.8797132390099796 11.631196546885835 -8.89970190511945 -3.9027434561849605 -10.72700984796385 -1.711620541963696 -7.368864262282466
-1.9601107906863098 -8.728966160209175 0.35357296079675116 -2.110466141124118 0.4335194581495715 -1.849499818074562 -4.378995814739184 0.09226943746860727
-1.2470019053728947 -5.508323311758569 -2.205154163138474 -4.110781892561018 3.994114310104556 2.875209063708585 -2.272678469909354 -1.4089124094997978
-3.61034301038889 1.0328798669206933 3.236055851034413 1.615431583267985 -1.1713094674965774 -2.1957919353179163 -7.018815008568683 1.130991308317299
4.540074699346375 3.6988238238959075 2.526178008294977 -4.849506209691994 2.917167768333367 6.304404644130412 0.3858598030307192 4.18579694865657
-6.883444075539986 -0.05679126679084534 3.747624662979383 4.513598459781684 0.4615724721359863 4.96586124820393 7.706792038994894 -3.1529939237165836
13.61943759988722 -4.17902247299432 0.8516857318987536 -1.2776846247840803 -1.024961137448507 8.181002865234847 -4.231170064308427 -1.761012505347822
-6.684596093594423 -7.949389234953735 3.106397849475643 -6.030489576931426 0.04732670360364705 1.1998412887027572 3.588432583539366 -2.762339881249649
7.008694315038465 -1.215921665185422 4.753777624497797 -3.9616685489201613 1.1731136811745186 3.318987750165339 -7.899878287415748 2.350547149654511
-11.501226970277884 7.942753583089404 -6.3915917745075665 -7.707151001517982 -0.8157909053940089 1.5567998475476073 -5.21423601214933 -0.28755784853318767
10.11516761341222 5.628759851782716 -3.091854055170552 6.644449792556033 -1.4289706520640384 0.8652324264958523 -3.153548608819813 1.6901155864858515
-0.0824504981309818 5.24183557761598 -0.33623638448766324 -1.6071303733988902 0.6640845735490895 -3.2066500973251975 -3.2511332690962442 1.7128654737948386
3.825010199158391 1.0952898271040241 0.5633797325315216 -3.295121476301171 -3.278862257030961 -3.079668654826341 -2.8012373830458412 -2.091074683988405
-8.05298178878667 -3.3587549404005523 1.973966082079373 -0.6850822948851376 3.272717207831465 -2.145923465824054 -2.655917835005325 -1.3189282619512257
-7.781231134886176 -1.1111443325610493 2.531032975137597 -6.887823378730391 2.5110462850242645 9.214715373700056 -2.7325234742658524 11.086382156960282
2.0761683223864735 3.292836224428563 13.724433123858917 0.9054244352670215 2.5218333034494207 1.9834327484158658 3.7285674926369956 -5.4442052833267605
1.2342863867467884 -8.066616885270069 5.94301530673389 -6.0695622017507045 4.889043432195894 0.6512146397670653 1.492212455850241 1.3604000789870307
