weights_final.npy (npy, 26896 bytes, 1 tensors)

array f8 [3346]
0	0x402cf21978c61644	14.472850584202327
1	0x40233acfc41a7f26	9.614866379007776
2	0xc01ddd2213bde314	-7.465950306381973
3	0x4023a81a6f89f9c1	9.828326688378072
4	0x3fe5837eb0b7eeb4	0.6723016215832645
5	0xc01a4fb2bb7e3fc5	-6.577830247479089
6	0xc025137a3b5cc567	-10.538041930269811
7	0x4027c44b4a592a13	11.883386920341797
8	0x4015e1a2fee37012	5.470348341590595
9	0xc00239e83f605161	-2.2782750083226095
10	0xc0347c05904f80c8	-20.484459895524907
11	0x3fdcc5472dabf7f0	0.44954089603549985
12	0x4012198c69944e68	4.524949693371674
13	0x3fffe467568fa4ce	1.9932626134198475
14	0x40223a4bae9b71f7	9.11385865829014
15	0xc0194be9eca3f314	-6.324134538180051
16	0x40131043aca18cce	4.765883157119971
17	0xc01b62e79d59d337	-6.846586664779173
18	0x4023a52c996534a9	9.822605889896595
19	0xc0186ed3b6b8ec69	-6.108229498898347
20	0x4027225616ca75b5	11.567063057150202
21	0xc025bbca40c3bede	-10.86677744283173
22	0x4031b56bb060dfde	17.708674453402516
23	0xc01dc9e9f18499db	-7.447181485861132
24	0xc009d2441aa5224f	-3.2276689607281592
25	0x4002ba6d38f2d11e	2.341028637800391
26	0xc028355821105205	-12.104187997095332
27	0x40210cf7fb016c1d	8.525329440997718
28	0x4020feaafe7bdb8b	8.49739833127912
29	0x401d02560dfb1a80	7.252281397296088
30	0xc012c3f3b555d88e	-4.691359361042613
31	0xbff3e4c643435a64	-1.2433531405892149
32	0xc022f070a1b3d92a	-9.469609311298502
33	0x4005addf0657b26b	2.709898042250918
34	0x4026846e86855159	11.258655742429868
35	0xc0260f34e38ae394	-11.029700384811612
36	0x4011d93388db8103	4.462110651395281
37	0x402726f3b8349783	11.57607818262091
38	0x3fba3eddd91abfe8	0.10252176809694868
39	0x3fedead954342752	0.93491808362999
40	0xc033a03435cf004b	-19.625796664273633
41	0x400a816cdb29535c	3.3131959077822284
42	0x400147d92d751c71	2.1600822020878288
43	0xc025db0d83c9a563	-10.927837484707828
44	0xc029e9beeb38c405	-12.956534720115096
45	0xc0202bda14541c55	-8.085648188846031
46	0x400444cefaee7aa0	2.533597908404161
47	0xbff4d60c24bc668d	-1.302257674693837
48	0x3ff379f6fe0ce385	1.2172765659181277
49	0x4029d91229797062	12.92396669013414
50	0x3ff1b76834cae110	1.107277113171282
51	0xbff072182a5e96d4	-1.02785507727224
52	0x3ffbe1a444061547	1.7425882966211519
53	0xc0236f1df7b82d68	-9.717025510056104
54	0xc019e82179150ae0	-6.476690189275104
55	0xc012f60cb0331f05	-4.740282776947201
56	0xc0216ca5ac4b2b74	-8.712201484848016
57	0xc01fa59377e10677	-7.911695359334423
58	0x401d59905ba17a3c	7.337464744311145
59	0xc0063dcd271d37e9	-2.780176454142737
60	0xc0233f7ed16070c5	-9.624014418623469
61	0xc025dafae8ad56ae	-10.927695532950874
62	0xbffaca291b354830	-1.6743556082551656
63	0x40117218249f4896	4.3614202234477
64	0xc00558175a5efdf2	-2.6680132923354387
65	0x4015e7d3fa63f299	5.476394569731064
66	0x3fefda0ea102f21b	0.9953683037525168
67	0xbff3883406246fed	-1.220752738946426
68	0xc00df063179ed216	-3.7423765035002914
69	0x3ffbea15bebc7d44	1.7446496439586818
70	0x3fdb978bf9f03fee	0.4311246815495896
71	0xc01799f78c2e48f2	-5.900358381581315
72	0x401bb60416a5d8e6	6.92774997126819
73	0xc02f96ece9e67399	-15.794776257878583
74	0x40146050119998f2	5.094055438041538
75	0xc0061b8f884fde56	-2.7634573602079326
76	0x400f2d679458a576	3.897170218425056
77	0xc00d0a01ca286920	-3.629886226042018
78	0xbfc24c29ede6ff0a	-0.1429493343002764
79	0x4031d7b86830cee4	17.842657577434593
80	0xc011e590e6eb697c	-4.474185569876109
81	0x3fd597cae0a057c6	0.3373896783463092
82	0x40218d76ab8fe96b	8.776296006505353
83	0x4020064f250cddfa	8.012322576351824
84	0x4017d73c6341181c	5.9601912983398755
85	0xc0238a9beaa6f1c5	-9.77072079933067
86	0x402a36037005f84f	13.105494976738695
87	0xc0321ff70568ea0c	-18.124862993348913
88	0xc01469011448afba	-5.102543179451397
89	0x402ef7c8293224bb	15.483948981638937
90	0xc0219cbf090ed928	-8.806144984304936
91	0x401e789e13731399	7.617790511988368
92	0xc00e892b27648bd9	-3.816976840740136
93	0xc01aaece4f0f847b	-6.6707088807316905
94	0x3fe915707aeda6b1	0.7838671112960666
95	0xbfb36357c2656bb8	-0.07573460098266949
96	0xc02d556d37413df3	-14.666848875726805
97	0x4007b596e7ee36bb	2.9636667365619735
98	0xc021b2ef80e052b3	-8.849483516104874
99	0x4020e713ab129bcc	8.451321931859546
100	0x40101b9b6180377d	4.026959918452005
101	0x40302fd90600c42b	16.186905265032845
102	0x3fe4af92c30c2d86	0.6464322862170071
103	0x40129ffd063d8428	4.6562386488958865
104	0xc01881dbdf8c8a26	-6.126815312340602
105	0x403025a036cfc7ca	16.146975923278468
106	0x3ffae5a765d34f41	1.6810678460651192
107	0xc02d257450683df4	-14.573153031086783
108	0x4015389e20c28f44	5.305290710329988
109	0x4022dd7bd301f69c	9.432585329045928
110	0xc03086ee3a3369a4	-16.527072560836714
111	0xbfefee6884be4910	-0.9978525726931213
112	0xc02819695afb4e6a	-12.0496319228907
113	0xc00b8e2cc0489b7e	-3.4444212934644716
114	0x4003e1316101a737	2.4849574640874397
115	0x402153e79dc491fb	8.663876466985121
116	0xbfe3f14f27f95e14	-0.6232066899055462
117	0x401196deaca4a9de	4.397333810377374
118	0xc0116212d82a0372	-4.345775010647104
119	0x4023765952c44f66	9.731150232757226
120	0xc000121588ef4695	-2.00883013706409
121	0x401698186475118d	5.648530549664781
122	0x4026705e3f2f5593	11.219469046142683
123	0x3ffe1872e9a08f1f	1.8809689642011518
124	0xc00fcc3bf958f320	-3.9747237663526818
125	0xc0354c14371d8892	-21.29718346091301
126	0xc02812ad995343e8	-12.036480704702583
127	0xc0223dd161c469a6	-9.12073808214775
128	0xc02373856470b59c	-9.725627077825997
129	0xc00f34debe4c8dad	-3.9008154742347956
130	0x3fd6d4ccc42732c0	0.3567382731969637
131	0xc017fe15175d8764	-5.998127331813382
132	0xc0110f3e1833fd7e	-4.264885309384566
133	0xc01c4b1c726eba82	-7.073350704201063
134	0x3ff98a5cd546bbb2	1.5962799388032463
135	0xc0258bd433c1dd9a	-10.773103349127997
136	0xc0304fe066ead0c3	-16.312017853096005
137	0xc0220976066e1236	-9.018478585182589
138	0xc00c948fe35c6144	-3.572540069824898
139	0x3ff2e4b6e771db8d	1.1808384934244913
140	0x400aaa9810ad547e	3.3332978537460454
141	0x40171334cecc16fb	5.768756133276606
142	0xc0251e3f9529fd27	-10.559078847289653
143	0x4002451a621f9023	2.283741728389957
144	0xc016aa36a1ae7d7c	-5.666224027895961
145	0xc015979b20932832	-5.398052700978996
146	0x3fd3a49f2428a868	0.3069227078546022
147	0x4007191e66735ddf	2.8872650150258177
148	0xc010102bfe6f9157	-4.015792823371462
149	0xc00c21a7900a75d7	-3.516432881659721
150	0xc018c367a39e15b6	-6.190825039409381
151	0x40253704edf0eccf	10.607459483775896
152	0xc02af52c3871e373	-13.478853000547792
153	0x400c56d4d9b37787	3.54239816740932
154	0xc00c0b7117f2a18d	-3.5055868025703547
155	0xc010c7232a3c0058	-4.194470081245605
156	0x402168d3271e8cde	8.704735968093186
157	0x402ef8fe370da41f	15.486314506926702
158	0x3fff8daefb490236	1.972090703566335
159	0x4005599c4adaee36	2.6687551353513994
160	0xc0027966cc8be948	-2.309278104800942
161	0x4020dc76bd24a848	8.430593405461096
162	0x3fed8d027f95110a	0.9234631053773523
163	0x3ffc826abc9b3d38	1.781840073341142
164	0xc00cc05e700ab307	-3.5939301255479026
165	0x4005303f59e8113d	2.6485583328195887
166	0x40305380af956ab2	16.32618234060164
167	0xc012892412ae010e	-4.633926669950837
168	0x4022993da690bcd2	9.299298482101594
169	0x3fd8f3db313f066e	0.38988380250166343
170	0xbff654408f896454	-1.395569382372078
171	0xc005155db9510b3f	-2.635432670388951
172	0x4033cae79ddbd264	19.792596689383927
173	0x3fe7a591aa31013f	0.7389610599566722
174	0xc02caa767be5d4bf	-14.332935210996196
175	0xbffe184dcff7d311	-1.8809335826637759
176	0xc02b795eb2728574	-13.737050606231357
177	0xc012c3f460597324	-4.691361909350949
178	0x400809ead37447cd	3.004842426286791
179	0xc02cb4e578f1ea6e	-14.353313235789042
180	0x3ffa21ef05e8bcf0	1.6332845907998568
181	0xc00b9fc702d764a4	-3.453016302297856
182	0x4028bc5ce175df97	12.367896123541682
183	0xc0219cd451d1dcbd	-8.80630737005992
184	0x402e08cc6b79d4c3	15.017184599515877
185	0x40226279acd42764	9.192334557435693
186	0x401d77929717a593	7.366770134752545
187	0xc026f7bf4411e3ec	-11.483881117996098
188	0x401c0baa5227ca02	7.011391910246404
189	0x4025a96b18f3d55d	10.83089521385653
190	0xc02ab48b87b1eb14	-13.35262702986578
191	0x3fe1ac9c5cdeefa2	0.5523206533321068
192	0xc02fbd1155119101	-15.869272859949435
193	0x402ff22fbfa81888	15.973020543355474
194	0xc0099292163d9b41	-3.1965677011061477
195	0xc01572c65e42ad4e	-5.3620848396488565
196	0x3ffeda56ad8bc393	1.928305318750266
197	0xc0159e22e7820a00	-5.404430024444537
198	0xc010072c08629d04	-4.007003909129029
199	0x40063e67a488c3e4	2.7804711202847887
200	0x4020c5ae03b1d039	8.386093249755605
201	0x3ff744a06f1b7305	1.454254564297288
202	0xc01945ce857ab083	-6.318170629132626
203	0xc00607e37a144e90	-2.7538518464514894
204	0x402139a52922332e	8.612588200974269
205	0xbfe89e5632b207b9	-0.7693282117982029
206	0x3fcbcb1099228bb7	0.21713454701702314
207	0xc0065a0b02c5d9ce	-2.7939663139943383
208	0xc01e3ce706d60f76	-7.559475046935281
209	0x400f6251fa373e22	3.9230079219921814
210	0x400f8c1ff6c2f917	3.9434203413249054
211	0x40146fa18537cb62	5.10901458886187
212	0xc010766bbd446d2d	-4.115645367909832
213	0xc014455ca5ac84d2	-5.067736233381952
214	0x400839e2cba39222	3.0282646092694145
215	0x4027e5e2748a27ac	11.948993341316815
216	0x400fd140dcd789f1	3.977174496963237
217	0xc0160304a6c62663	-5.502947431415666
218	0xc02cc3e131eec20b	-14.382577476878415
219	0xc021401debe05a7d	-8.625228282105349
220	0xc016f47424484421	-5.738724295531058
221	0xc003e5648353342d	-2.487008119560889
222	0x40238dc0d534fa7b	9.77686182281217
223	0xc029f060a2ddca89	-12.969487275671115
224	0xc0181e5cf22ad0b3	-6.029651435721621
225	0xc01caab55b386591	-7.166707444493469
226	0xbfd4815684a007f8	-0.32039416267082244
227	0xbff7ac578a01f333	-1.4795756712839647
228	0xc0299a074b130596	-12.80083689315033
229	0x401f2655a8f42ecc	7.787436141875968
230	0x3ffb1d96ac5d9eeb	1.6947237713847538
231	0xc00b53b063694dd6	-3.415863777781605
232	0xc02797b63d862a18	-11.796312258365148
233	0x4013fe72b51eb009	4.998484449384713
234	0xc017bf6146d80092	-5.936894518789034
235	0xc03121e478bb3b58	-17.132392450056926
236	0x40223b3bc3b425b7	9.115690341702118
237	0x40383f88339edc42	24.24817202213695
238	0xc00c99df4c64d186	-3.5751329391734457
239	0x402d5751ab22a53e	14.670544956187424
240	0x4015f60bddf36679	5.490279643994307
241	0xc0110c339d3d2a6b	-4.261915642603166
242	0x4022fe3c4a905a75	9.496553735848673
243	0xbfd6cdae199489a0	-0.35630371568745467
244	0x3fd22456ccd9d494	0.2834679604050703
245	0x401df2aa624c9042	7.486978088305536
246	0x40227dd79457eca3	9.245785365803675
247	0xc01fd0f59d241473	-7.954061942412511
248	0xc0115173ee43d304	-4.329543803109804
249	0xc02b3d5343cbf838	-13.61977588524688
250	0x402ae6fbf6fde2e6	13.451141088954909
251	0xc02e2e9b355bd447	-15.091027896365757
252	0x401b230b15357b68	6.784221965207372
253	0x4004f0f70c13a00a	2.617658705090439
254	0xc028317c4d57a039	-12.096651474901693
255	0xc0031e655585812a	-2.3898417168967585
