weights_final.npy (npy, 26896 bytes, 1 tensors)

array f8 [3346]
14.945538724032613 10.234924474698017 -8.113278404341873 11.907497455758607 1.4379120357340738 -6.44394814744462 -11.917826075152616 15.470689709292285
4.4365058349395285 -2.8953274206954216 -21.663972539401755 -1.020316853396383 7.860185260416969 4.496218605155732 7.2158580762268025 -8.030180936265017
5.758898862798426 -6.834453276174571 11.302453723554098 -3.6349664015532355 10.322320664161479 -14.441837555658442 16.348898799611675 -6.565494919308723
-5.684280368884314 3.4189455670016264 -10.315679646655882 10.134899948719282 9.76674839585231 6.199917394599381 -6.941142644088947 -1.9716950303410574
-10.364446444355611 2.44328491465252 12.263056847039234 -10.907789599469204 3.370983530549094 12.605375834881485 0.6863297665455886 -1.9846630730836605
-20.102812660672367 6.501801806479432 4.8515616778873225 -10.729940048680643 -16.484332457927042 -5.305107923085718 2.4810865939172917 -1.9421895920438752
-0.06553444755862946 12.937606894592278 0.5716510813549953 -1.340313885165303 3.0261803898783137 -10.865108920879596 -10.433053457078248 -4.105193837020042
-11.866584414529543 -5.824801190100786 8.26973476685637 -5.909587864944655 -9.948869944377826 -9.68732861595226 -1.0712540994679929 6.364941770521652
-2.672796613552904 6.316581161251231 1.0630882911208985 -3.1827139890081133 -3.1000076150796474 -0.6974402527389233 1.5831366921016365 -6.8439458646105225
5.885211113943915 -14.295643894647332 5.162558580021914 -4.338610925485991 4.3079689624810245 -2.5376985754995722 0.29377017164078667 17.237757100594624
-4.2906665886977615 -0.1897661936959758 10.309021966459369 7.534178620848947 5.107734696224886 -10.245054560921135 17.413447872005623 -15.893890110461532
-4.9678914043537 15.90091529779777 -8.98248004924777 7.60292717851405 -4.403241894492485 -6.173658660259722 0.8406206537125366 2.148313595978606
-13.455380811742744 5.601659343455305 -8.313696212477147 9.206260113646568 3.2115220842566923 15.620857921151247 -0.290021693773197 3.9458957120722564
-6.387495903665197 15.975843208544733 2.4953416244444053 -16.288250236436866 4.686150136498114 8.284351591213003 -18.734615111203144 -0.023611979345308565
-16.32337241014587 -5.521745683511703 4.402597921580961 9.784946100326087 -0.11263960749793088 4.636129694693556 -4.109623364185918 8.527169721437964
-1.1354458927324371 4.8726669170368995 7.990487632091333 2.735482813388551 -3.665327112710314 -23.381666297522315 -12.308553857490073 -11.613849328724928
-8.383184859508125 -4.274544503223844 -0.07903687864026165 -4.348816045047218 -6.131767995372421 -5.539081600058138 1.1443494621934371 -10.910153013519459
-17.70575188339919 -7.658409586079212 -4.992548958467178 1.0707817890057103 4.981418420013613 6.476782198878038 -13.601619640245692 0.8316215677355558
-4.7484860867157295 -6.028311969649862 1.169809709070607 3.4681108036402346 -6.159176178007393 -3.0596461419711596 -7.579506304795311 12.457103790976896
-14.892458525501498 0.2791130216182705 -3.1231639854209994 -2.8507076987308793 10.137128851799739 17.06682513907495 2.2871721038916704 4.1970231196838625
-0.2968937061853114 10.634113818934885 -1.3047727268909532 -0.8137467941002507 -1.6331240142600607 3.6418723776242348 18.803807859018576 -6.969760192265356
9.92424220752936 -1.7325135746068938 -0.6292827944044982 -2.4746358305623115 20.73799457526287 0.4126679895934282 -13.928535755441786 -0.8780564859780898
-12.346541133476661 -4.530579917540676 3.147167165540359 -13.744008170550826 1.8993930252065678 -3.416619974449102 12.899960162000886 -9.881907713047925
15.955618742335663 9.674354811789469 6.662656452459393 -11.431161189092608 6.304475275398458 11.109100588754098 -13.582958115719098 1.208497396204462
-14.286054040715618 15.142306165335182 -3.078781075836031 -4.342937464157551 2.2248465593207682 -7.719691572814687 -7.641884371990354 3.347139584339694
8.217489537230394 2.3336810390017995 -5.595019335026231 -3.1857962266241957 12.250307773057848 -1.8095608951094526 2.4578484796612394 -2.540124978764833
-9.019558288264353 6.022602665624575 3.232065037248098 6.088304907336402 -6.982579595227388 -5.357684235466829 2.0078772652780814 14.73898273921473
3.4627126659489114 -5.7586468018491965 -13.13938370110126 -8.836210110985418 -3.1792914894132704 -0.591638186219611 10.130125179435005 -12.580483616500102
-5.219636944053818 -6.509088535375958 -0.44019005725856075 -2.6747290796132748 -14.231320167101819 7.459066392883094 3.232288516440991 -4.296939086939461
-11.555126033958306 2.415873401371749 -5.490874866337949 -12.278006224458267 10.125102793767525 25.19283951102211 -5.083412379999866 16.61229399989645
1.7297155851174948 -2.165996845206425 9.077220196435213 -0.8518706206919529 -1.7023349453369758 8.968221824998631 8.955081904568237 -10.576485249746783
-4.431150045518318 -12.080836271433922 12.102330326739516 -13.770907065262643 7.221281338694544 0.968860011696235 -10.093826650860533 -1.1175830404964802
00000000: aea4 d1a6 1de4 2d40 47b7 4f05 4878 2440
00000010: 9afb 83a0 ff39 20c0 735f ab81 a3d0 2740
00000020: c60a 000d b001 f73f e593 d957 9ac6 19c0
00000030: 9f64 a04c edd5 27c0 bff2 d73d fef0 2e40
00000040: 5550 b662 fbbe 1140 7cca 386c a129 07c0
00000050: 302c b61a faa9 35c0 4b52 cec3 3753 f0bf
00000060: f0f7 a767 d470 1f40 0f3e e3ba 20fc 1140
00000070: e9e2 47e6 09dd 1c40 1b71 2ce0 730f 20c0
00000080: 69c3 92c8 1c09 1740 e0d6 6ceb 7a56 1bc0
00000090: c26f e636 db9a 2640 f0d6 c543 6914 0dc0
000000a0: 0fcc ce36 07a5 2440 2a65 3788 38e2 2cc0
000000b0: 20f2 856e 5159 3040 c4f0 a119 1143 1ac0
000000c0: 9e9c 36fe b3bc 16c0 fb9b 2822 005a 0b40
000000d0: b9cc 3cc3 a0a1 24c0 79f6 279b 1145 2440
000000e0: 6ce4 e83e 9388 2340 cfd2 3e25 b7cc 1840
000000f0: 96ee b4e5 bac3 1bc0 5502 9016 108c ffbf
00000100: 3a4d 6fb9 98ba 24c0 1af1 19f6 d88b 0340
00000110: 760b 1663 af86 2840 04bd 62cc c9d0 25c0
00000120: f980 9836 c6f7 0a40 9835 49d2 f335 2940
00000130: 31b5 b2d7 69f6 e53f 2592 0711 2ec1 ffbf
00000140: db33 37ee 511a 34c0 8d9c 2f55 d801 1a40
00000150: 3536 d4c8 ff67 1340 7e3f bab3 ba75 25c0
00000160: 1d30 4336 fd7b 30c0 549d 1d36 6e38 15c0
00000170: b459 9bed 43d9 0340 445c c764 3513 ffbf
00000180: ef96 0695 ddc6 b0bf 508e c902 0ee0 2940
00000190: 5491 6435 f74a e23f 088e f2f8 ec71 f5bf
000001a0: 5297 7210 9e35 0840 ba4f 758e efba 25c0
000001b0: 4224 c72e b9dd 24c0 a3f7 e6ee b76b 10c0
000001c0: 6141 cff3 b0bb 27c0 30bd e4ae 984c 17c0
000001d0: 0e7c e4ac 1a8a 2040 601a 5300 6ba3 17c0
000001e0: 2c85 0648 d2e5 23c0 643d 4e89 e95f 23c0
000001f0: 41bc ae56 db23 f1bf de56 a54b b375 1940
00000200: df8d e030 e361 05c0 3b6a 18da 2d44 1940
00000210: 20ff 31de 6802 f13f 0e7e 7ac0 3276 09c0
00000220: c0f1 e0ca d0cc 08c0 4faf 8d38 6e51 e6bf
00000230: 52c9 da23 8754 f93f f562 4058 3360 1bc0
00000240: 85c7 41c8 748a 1740 738b f5a2 5e97 2cc0
00000250: 6683 a3c1 75a6 1440 5c1f 8cd2 bc5a 11c0
00000260: fd27 3837 5c3b 1140 f802 27e9 344d 04c0
00000270: f632 ef67 21cd d23f 1972 3ba6 dd3c 3140
00000280: b1fc 9180 a429 11c0 50c2 e735 424a c8bf
00000290: 9060 8f20 389e 2440 0f13 6bb8 ff22 1e40
000002a0: b6b8 1301 526e 1440 a9c8 99ca 777d 24c0
000002b0: 6ddd 40b8 d769 3140 db4c edf6 abc9 2fc0
000002c0: 571d 9fec 1edf 13c0 da03 19c5 44cd 2f40
000002d0: b8fb 00a0 07f7 21c0 7f59 06be 6569 1e40
000002e0: a4e3 7471 eb9c 11c0 44ee 6993 d3b1 18c0
000002f0: 1533 0149 5de6 ea3f fe3d e209 bf2f 0140
00000300: 7152 7bac 27e9 2ac0 bae4 0d63 1968 1640
00000310: d4ef 3aca 9ca0 20c0 9a29 f5ec 9a69 2240
00000320: 2f1d 927d 32b1 0940 439d e516 e13d 2f40
00000330: e8ba 7826 b78f d2bf 3e37 66c5 3191 0f40
00000340: d04d e6b9 cb8c 19c0 5972 95b8 a1f3 2f40
00000350: 9cb0 6aab 75f6 0340 848f 7ac4 ca49 30c0
00000360: 109f 3124 9ebe 1240 9ca6 2188 9691 2040
00000370: d1c3 65bc 0fbc 32c0 e0e4 531c bd2d 98bf
00000380: 5501 c688 c852 30c0 380c 1e80 4416 16c0
00000390: de82 2aa1 429c 1140 eb0b 8c74 e491 2340
000003a0: 8719 7006 f3d5 bcbf a6e4 2a95 658b 1240
000003b0: 5c39 701b 4170 10c0 f408 9230 e90d 2140
000003c0: 0c9d fa4f c92a f2bf 05e6 7365 9c7d 1340
000003d0: f3b2 cb63 42f6 1f40 f130 32d0 44e2 0540
000003e0: fddc 7105 9752 0dc0 00d8 e9e1 b461 37c0
000003f0: f3f2 6dc5 fa9d 28c0 1a17 8f75 4a3a 27c0
00000400: cbd1 4fce 30c4 20c0 6892 ba31 2219 11c0
00000410: 9816 f0c8 c23b b4bf 0331 8708 3065 11c0
00000420: d822 7b30 ee86 18c0 0e80 c801 0528 16c0
00000430: 570e b561 414f f23f 06d8 6693 ffd1 25c0
00000440: 394a ca27 acb4 31c0 1b55 5e1f 36a2 1ec0
00000450: 7b2e 11c1 5ef8 13c0 0ee9 ce15 ec21 f13f
00000460: 129a 46f3 f8ec 1340 0cfc bd97 39e8 1940
00000470: 1bf9 4e7d 0734 2bc0 9a51 82d5 a49c ea3f
00000480: 00d2 ff22 73fe 12c0 0fed 1ed0 fd1c 18c0
00000490: 4606 b062 8ab7 f23f 0c50 84e0 b0be 0b40
000004a0: 4960 7b14 ffa2 18c0 25ca a8c1 277a 08c0
000004b0: caaf cb19 6a51 1ec0 2d3f 1282 09ea 2840
000004c0: 7121 e852 f0c8 2dc0 e13e efdc fcdc d13f
000004d0: fb6c 4b66 3dfc 08c0 5009 84d6 3fce 06c0
000004e0: c5a2 bbc0 3546 2440 a8e0 ca73 1b11 3140
000004f0: 504e 54e3 204c 0240 7064 be6d c0c9 1040
00000500: b810 9d75 4e00 d3bf b488 0491 aa44 2540
00000510: a359 eb5d 59e0 f4bf 6255 7cb7 360a eabf
00000520: 7af2 78a5 4621 fabf 97d0 30fc 8d22 0d40
00000530: a8c0 125a c6cd 3240 31f8 dad0 08e1 1bc0
00000540: c8d7 4d46 36d9 2340 ad00 6d27 60b8 fbbf
00000550: d5e3 bcab 1523 e4bf 0c33 cede 0dcc 03c0
00000560: 2361 6536 edbc 3440 dc3a daff 2669 da3f
00000570: 0894 dd09 69db 2bc0 6921 6aea 0919 ecbf
00000580: 8700 e6d6 6db1 28c0 9e01 8757 501f 12c0
00000590: ae53 98fa 652d 0940 f7f1 90a3 ee7c 2bc0
000005a0: 1234 d8f0 e963 fe3f 39f4 68da 3c55 0bc0
000005b0: 4bfe 0e94 c7cc 2940 1143 6368 89c3 23c0
000005c0: 7a8d 1bdc 46e9 2f40 6f12 ad08 4559 2340
000005d0: 962f bf69 8fa6 1a40 19ea cc28 c1dc 26c0
000005e0: 9e1b d95d c837 1940 ad58 4908 dc37 2640
000005f0: 12e7 737c 792a 2bc0 36fd 9f5d 0156 f33f
00000600: 4386 dbac 7592 2cc0 7e44 8c5a dc48 2e40
00000610: 5a13 02f9 57a1 08c0 f884 a4ff 2a5f 11c0
00000620: e334 575a 7ccc 0140 96c8 e1d3 f6e0 1ec0
00000630: 5c0c 0623 4a91 1ec0 9116 4f1e f1c6 0a40
00000640: e140 e3c9 5a6f 2040 d876 eef6 60ab 0240
00000650: 8ab3 a1bf 4c61 16c0 aa91 68bb 827c 09c0
00000660: a46f 2657 2880 2840 70d9 0920 f6f3 fcbf
00000670: c558 b576 aca9 0340 9761 7c0b 2d52 04c0
00000680: 1aec 408b 030a 22c0 d0a3 3627 2517 1840
00000690: 6f34 0cea 44db 0940 3a58 049a 6c5a 1840
000006a0: cbdf 6c58 29ee 1bc0 ca7f b6c6 446e 15c0
000006b0: 9d02 a6f4 2110 0040 b678 12f2 5b7a 2d40
000006c0: 7b90 bdb2 a2b3 0b40 11a1 0cb5 da08 17c0
000006d0: 94a6 eb4c 5d47 2ac0 a788 4ebb 23ac 21c0
000006e0: 59d9 5b60 306f 09c0 7818 9c34 b3ee e2bf
000006f0: 741e 7cc4 9f42 2440 a776 0926 3529 29c0
00000700: 70d1 ce81 e8e0 14c0 47d5 4881 4e09 1ac0
00000710: eeca fcea 122c dcbf 27cb 145c d865 05c0
00000720: 1337 d198 6f76 2cc0 9780 2080 15d6 1d40
00000730: a6cd ea14 badb 0940 813c cdcc 1030 11c0
00000740: aa04 c27a 391c 27c0 f357 116f b553 0340
00000750: 4266 a5e6 a7f6 15c0 f043 f4d4 568e 28c0
00000760: 50bd 2f79 0d40 2440 7337 21ee 5d31 3940
00000770: 4bb9 100e 6a55 14c0 a017 b14c bf9c 3040
00000780: d960 d73f eaac fb3f c734 6b27 f653 01c0
00000790: 548f d467 8927 2240 f071 092d 8642 ebbf
000007a0: d2f6 5091 c33c fbbf fd48 63c5 baef 2140
000007b0: 733e d27e 00e9 2140 e193 1c13 2927 25c0
000007c0: 2bae c465 7fb9 11c0 4f47 2c5f 6329 28c0
000007d0: 6e78 fda3 6434 2840 e51d b354 b48a 2bc0
000007e0: f6a1 4393 97e2 1c40 7566 14b6 e600 ef3f
000007f0: dfe0 f90b 0a30 24c0 2ef2 17c1 9ee1 f1bf
