weights_final.npy (npy, 26896 bytes, 1 tensors)

array f8 [3346]
000000 2d 03 58 79 76 a1 02 c0 20 2c bd cd df 03 ec bf
       -2.3288392524704222 -0.875472928842445
000010 7d 45 4b 73 60 b2 06 40 db f6 67 12 b4 92 fd 3f
       2.837098026976206 1.8483162611950579
000020 30 60 67 dc 66 50 dc bf c0 4b 3a 3a 14 e2 f4 bf
       -0.4424073364621135 -1.3051950716514824
000030 0a 69 25 df 87 95 16 c0 4c 68 43 70 12 f1 b5 bf
       -5.646026121767372 -0.08570971718600723
000040 f7 2d d2 a9 18 b8 f7 3f 6a ba a3 b3 03 cc 05 c0
       1.4824453958161692 -2.7246164354649425
000050 73 8f eb 0b fc 6d 11 c0 34 26 0e ab 8f 4b f6 bf
       -4.3574067938351275 -1.3934475595327855
000060 a3 d0 90 d6 a1 d3 fd 3f 3a b5 3e 5d 22 88 e3 3f
       1.8641680127594007 0.6103679486456379
000070 8a fc 1f 46 a9 6c ed bf d3 1e 6e 99 8c 30 f7 3f
       -0.919514309847629 1.4493528359761754
000080 97 15 fe fe dd 9a 21 40 00 2a 1b 88 eb a7 fb bf
       8.802474945560602 -1.7284961048741252
000090 4c 9a 90 a1 5c 42 d4 3f ce 35 fe 3d 62 47 12 c0
       0.3165504052907735 -4.569710701599844
0000a0 7e 84 e9 1f cf c8 1e 40 a2 81 bc 7b 56 c9 0d c0
       7.696102617862492 -3.723309485140093
0000b0 68 cf e9 08 85 da 16 40 aa ed 9a f0 b9 a1 0a c0
       5.713398112555161 -3.3289679333954227
0000c0 c2 a7 dd 08 5a 4f fb 3f 49 70 59 bf 87 11 05 40
       1.7068729730913081 2.63355969897933
0000d0 2c 9d b1 2a 3a e8 16 c0 53 7a 21 4e 15 df 19 40
       -5.726784388628669 6.467854710381817
0000e0 7a 37 a4 fb 38 7f e9 bf 7b 6f 76 5c 3d 2a f6 3f
       -0.7967801012871256 1.3853124248334712
0000f0 28 3a 5e 86 13 7d 08 c0 b3 c7 46 16 ad 45 05 c0
       -3.061072396994195 -2.659021543536221
000100 ca f2 5b f4 1e 05 09 40 9c 83 f7 3a d7 76 fd 3f
       3.1275004473267005 1.8415138533966688
000110 8b c1 77 b4 c6 9a 11 c0 6b 1b 0f 72 f6 c3 17 c0
       -4.401148624238327 -5.941369802639069
000120 76 61 df 4b 81 9b 10 40 bc c4 06 4c 28 c0 25 40
       4.151860414036824 10.875307441545708
000130 1f f5 17 40 78 ca f7 3f fd 0b ff ae 83 30 01 40
       1.4869310859351754 2.148688666494762
000140 37 68 a5 4f 94 2a 20 c0 14 f6 e9 7f 21 41 f3 bf
       -8.083162774030013 -1.2034010883938935
000150 f5 85 9e a8 ce 37 06 40 c2 c8 ea 7f a9 fa d5 3f
       2.777249638879534 0.3434242009344751
000160 72 2e 65 52 5c 17 e3 bf 98 39 a6 33 9b 9d e8 3f
       -0.5966016396791487 0.76923904502637
000170 db ba 2c 93 ef f8 e5 3f 46 c4 33 12 36 8a 03 c0
       0.6866376757151004 -2.4424859449432317
000180 f0 aa a5 b9 e1 89 f8 bf de 84 0e d2 6d 99 0a 40
       -1.5336625339356793 3.324916497295461
000190 14 fa 57 f7 fd b6 05 40 84 af 19 2f 48 4a 01 c0
       2.714351589557973 -2.1612704925264
0001a0 ef 8f 3e 16 03 dd 07 c0 25 aa b4 0e 93 a9 1b c0
       -2.9829160440294724 -6.915600042130369
0001b0 10 94 6e 05 b2 9c db bf 88 ff f6 c0 b9 f0 e5 3f
       -0.4314389279409747 0.6856354492992844
0001c0 20 00 7c 4c aa 13 1d c0 6c a6 65 36 3f db fe bf
       -7.269204325741185 -1.9285270810018131
0001d0 18 2a 40 1e 49 eb 05 40 b6 66 92 99 e2 c8 ea 3f
       2.739885555585044 0.8370221137476708
0001e0 f2 bb 05 1a 59 e1 18 c0 34 b3 95 16 08 69 ff bf
       -6.220066458320604 -1.9631424791543397
0001f0 f2 a2 bf 40 ec 62 0f c0 eb b8 f1 b6 6f 93 ed 3f
       -3.9233021791918583 0.9242476056222392
000200 82 c1 db eb 70 1c 01 c0 ab f8 9a 41 51 e9 03 c0
       -2.1388872553290534 -2.4889245152872568
000210 aa a8 f3 52 ca 1b 08 c0 8f 40 46 bf 40 2c f4 bf
       -3.0135694962128428 -1.2608039352090008
000220 50 4f dd b5 99 ce e4 3f 6b ee 70 c0 fb 80 10 40
       0.6502197792092179 4.125960356610089
000230 e2 65 5b 09 21 36 15 c0 39 63 4f 16 81 3d 15 c0
       -5.302860399440279 -5.310062740893778
000240 fa 2e c7 77 83 1e 0c 40 60 85 3e b5 6f ba 0d c0
       3.5148991925869923 -3.7160333785729307
000250 cf 7e af 4e 25 39 ec 3f 04 e5 75 f4 0b 18 f9 bf
       0.8819757973505719 -1.5683707761039054
000260 53 e2 3d 7d 65 b5 13 40 ea 55 a1 8c 8e 4c 05 c0
       4.927144963171105 -2.662381266282627
000270 93 ad c6 24 a9 54 19 40 85 25 c6 1a 50 b5 17 c0
       6.332676481844277 -5.927063387245089
000280 65 16 2d e6 41 32 08 c0 bb 41 34 6d 5a a4 12 40
       -3.0245397551068884 4.66050120002222
000290 b4 b7 49 04 be ee b2 bf e6 82 0d 6c a5 49 1f 40
       -0.07395541767775066 7.8219200976606995
0002a0 5d 9e 8d d6 d1 e0 04 40 6a 4a c7 28 6f b7 ea bf
       2.6097752344101495 -0.8348918720678971
0002b0 b3 f6 85 9a ff ab 0e 40 d7 c9 db ec 9f 3c 04 c0
       3.833983618939635 -2.5296019081663235
0002c0 88 8b 9a f4 73 34 08 40 a4 1d e0 1c 94 90 06 40
       3.025611792532292 2.8205950027365407
0002d0 6c 4c 76 d7 9a a8 0a c0 0b 26 bc 68 85 14 19 40
       -3.3323265870072216 6.2700401654087825
0002e0 6e 18 c4 e8 a9 8d 1e c0 e1 c2 2e 1a 45 a7 04 c0
       -7.638343464821544 -2.581674770881691
0002f0 ad f9 67 a2 78 be 09 c0 fe c9 a6 01 08 61 f9 3f
       -3.2180035293560736 1.5861892761719214
000300 f8 9a 0a 39 c9 f5 11 c0 1e d7 20 88 39 2e f6 3f
       -4.490025416633891 1.386285335303405
000310 78 f8 c0 73 b2 6f f4 3f 11 a2 ee 39 b5 3f 16 40
       1.2772697946197962 5.562214760961539
000320 e9 af 5b 74 2a 71 21 40 51 c4 70 30 aa 17 15 40
       8.721027027313498 5.273110157854789
000330 04 16 90 3c 5d bf 02 c0 61 4b 30 d5 1a 9f 10 40
       -2.343439553401142 4.155375796387347
000340 aa 0f 94 0e a0 09 06 40 ca 40 76 ea b2 45 06 40
       2.754699815648526 2.784032661184118
000350 5e f6 98 e8 d4 7e ec 3f ea 43 a3 77 17 85 21 c0
       0.8904823820991614 -8.759944666557164
000360 0d 4c 64 b4 65 ea 16 40 09 96 c7 b2 65 7d e5 3f
       5.728903597470901 0.6715572826184949
000370 84 bb e9 61 e9 d6 f8 bf 5b f0 0a 6a df 30 15 40
       -1.5524686646201369 5.297727257650048
000380 0c 6f bc 13 32 2f e6 bf e2 cc 57 ad 90 0e 0b 40
       -0.6932611833067042 3.382111887208894
000390 e6 f2 e9 12 47 d3 16 40 5f 8a e9 9f 31 ab eb bf
       5.706325812844375 -0.8646476863180615
0003a0 0c dc 15 22 0d c4 00 c0 40 5e 23 a7 0d ed d2 3f
       -2.0957281744881637 0.2957185871323169
0003b0 c3 e1 21 f1 41 68 00 40 4a bf c4 f3 35 09 12 40
       2.050907024237149 4.508994873889444
0003c0 b6 cc c1 9d 1d f2 11 c0 2e 1d 75 95 7c b5 e5 3f
       -4.486441101983635 0.6784041327563608
0003d0 f4 71 2d 18 eb 5c 26 40 97 84 f9 99 ab 0e 20 c0
       11.18148112826109 -8.028652965267879
0003e0 bb b9 aa 7a 77 a9 13 c0 c1 f4 c7 66 dc a7 16 c0
       -4.915494839353808 -5.663926702455854
0003f0 90 35 97 78 4f 5c a1 3f 2e 0e a1 98 9f 83 06 c0
       0.03390739771894424 -2.8142692493581967
000400 c9 42 47 a4 40 7a 08 c0 ef cd c2 98 08 40 10 c0
       -3.0596936067816825 -4.062532793893737
000410 48 87 6f ac b1 e7 0f 40 10 26 61 be 85 08 0a c0
       3.9881318542037754 -3.2541613458058762
000420 8a 48 a6 bc 9b a1 0d 40 33 b1 7c 2a 89 31 ed bf
       3.7039103258367208 -0.9122968511415251
000430 73 32 79 b1 bb a3 e3 bf 20 77 ef 74 ea db 07 c0
       -0.6137369600561001 -2.982380784566786
000440 48 16 23 41 65 e2 07 40 ef bd 1e 2b a4 68 06 c0
       2.98554469002082 -2.801094376445455
000450 ec 6c e8 33 e3 cd ef 3f 1b 95 95 ea 3d 83 02 c0
       0.9938827527834326 -2.3140829398058833
000460 20 39 c9 85 ca f9 11 40 88 fb df 31 b9 c4 f0 bf
       4.493936624914824 -1.0480281780471348
000470 6d 2b af 1d 7d 46 f9 bf 95 a3 a2 02 2a af 00 40
       -1.579709163622023 2.085529347027157
000480 e4 ba 81 b3 16 c3 e2 bf bc 0a 9d ae 20 0a 06 40
       -0.5863145357123725 2.7549451486277956
000490 8e 99 d4 2a 3e ff dd bf db d2 8d 87 f0 80 08 40
       -0.4687037866846361 3.062958773627867
0004a0 92 55 2f d7 92 22 fb 3f c0 69 61 dc c9 2c d5 bf
       1.6959408193264136 -0.33085867425475257
0004b0 33 39 40 c7 74 a0 09 c0 46 37 5d 3e 14 8d fc 3f
       -3.203347736976093 1.7844431339357967
0004c0 a6 01 8d d0 41 8a f9 3f 7a 82 e8 79 3d 68 19 40
       1.5962541719928622 6.351797013107552
0004d0 fd 7a 6e af 36 89 cc bf db 59 bc e2 8c 1f f3 3f
       -0.22293742719644874 1.195202718435772
0004e0 9c 26 77 4a da 41 03 40 24 f3 3c 69 0c 04 14 40
       2.4071546380626625 5.003953594536856
0004f0 68 7b 14 36 9a 6d cb 3f b4 d1 d4 83 e1 9c 07 40
       0.21428229942918198 2.9516020106622936
000500 b4 62 0b c6 91 4b 1b c0 d5 5e 3d cf f1 12 10 c0
       -6.823798269696159 -4.018500555153612
000510 60 01 c2 d0 24 07 07 40 f4 5c d1 97 4b 54 e9 3f
       2.878488188667845 0.7915399518195998
000520 1f 1d b2 9d a8 93 cc 3f c8 7b 87 c9 86 7c 9a 3f
       0.22325618457782867 0.025865655947082705
000530 84 45 0c 4a 66 6a e9 3f 40 d6 65 d8 72 7f 82 bf
       0.794238228440165 -0.009032151440560132
000540 41 17 e1 88 fd ab 24 40 80 6e 49 15 46 9a 09 c0
       10.335918691136273 -3.2003289855036314
000550 ca 74 1a d0 5a 11 10 c0 9f 78 04 9c 13 2b c4 3f
       -4.0169479862353885 0.1575645934871703
000560 22 41 a4 e2 be bf f9 3f d7 14 89 74 76 5a 1e 40
       1.609312901800941 7.58834249579123
000570 d6 f1 17 97 d4 61 10 c0 42 94 73 0f 36 2e e7 bf
       -4.095537529789416 -0.7243910123621691
000580 d6 5f ad 36 63 d3 1c c0 ab 81 c2 37 c5 a0 0d c0
       -7.206433157283717 -3.7035011631234815
000590 6c 3f 11 0f 6f c2 15 40 b9 bd f7 76 c0 30 09 c0
       5.439876780917853 -3.1488045973162255
0005a0 9c 81 b0 48 ea fa e4 3f ea 03 b6 ae a9 73 db 3f
       0.6556292934147225 0.4289344984209139
0005b0 3c 64 aa 0a 6a 2c 0a 40 14 f2 5b bd 66 ac cc bf
       3.2716866334199306 -0.22401127096226559
0005c0 b3 71 8d 45 1f 99 f5 3f 44 a9 09 67 d0 52 11 c0
       1.3498833386321223 -4.3308731174132085
0005d0 f4 6d 2a 40 cb 3e 07 40 4b 80 2f 2d ec 76 13 c0
       2.9056611073444802 -4.866135316871872
0005e0 2f f9 05 cb fc 12 0c 40 c2 a1 ef f8 34 a8 e6 3f
       3.509271226997178 0.7080330717117749
0005f0 83 64 0b c2 5e 87 16 c0 8c d7 e6 c7 a6 1d d3 3f
       -5.632197410531378 0.29868478318837144
000600 9a 57 3c ca c4 02 18 c0 0b 16 98 83 ee b0 12 40
       -6.002703819211002 4.672784858853912
000610 22 59 1f b6 d6 5b 16 c0 1a 8b a9 d9 63 ff fb bf
       -5.589686246550885 -1.7498510839874997
000620 c4 59 1a d8 7d 12 f1 bf 1d 16 1b 4d 2c c0 01 c0
       -1.0670145455857076 -2.218834497822867
000630 06 a0 1f c6 bd 10 1c c0 69 ac 83 57 9a 25 fe 3f
       -7.016348930053942 1.8841803949860838
000640 d6 b0 e0 e9 5d 5c 10 40 af f8 1d ac bf 4b 14 40
       4.090202001894985 5.073973359422026
000650 dc 72 8e 0d 0b 00 fb bf 96 6e 38 58 13 95 dd 3f
       -1.6875105409191553 0.46222385039593783
000660 83 57 ff 3f da 79 f0 bf c6 60 82 7f b4 15 0b 40
       -1.0297491550349782 3.385598179022142
000670 5e 94 43 c4 1e fa f7 3f ec 58 df 0f 60 06 02 40
       1.4985644976198027 2.2531129112277224
000680 48 85 8c 93 94 67 f5 3f 98 bf f2 f3 10 98 f5 3f
       1.3377881778363463 1.3496255425670594
000690 cc 27 ac ee da 4f dc 3f 69 2e 09 17 6e 65 e1 bf
       0.4423739748750648 -0.5436315965575435
0006a0 24 0b 2e 46 27 3d bd 3f 65 b8 30 9b ef 83 09 c0
       0.11421437705398013 -3.189421856331182
0006b0 b0 bd 1b 53 53 a1 db 3f a5 03 ce 1b 35 c9 f0 3f
       0.43172152629901017 1.0491229139445093
0006c0 cb f8 6e 5a 09 b3 14 40 7d 48 6c b1 ef ce 03 40
       5.17484036733931 2.4760431157274625
0006d0 e0 82 02 df aa 5a 04 c0 9e c3 57 d6 bf 2b 03 c0
       -2.5442712233201377 -2.3963619943173873
0006e0 e9 af 0c 23 4f c9 11 c0 97 63 d2 68 29 62 01 c0
       -4.446590945863115 -2.172930544777454
0006f0 b2 ca 4f c4 d0 20 fc 3f c2 f5 1f b8 d4 f9 fd bf
       1.7580115955758342 -1.8734938804985721
000700 9b c7 bc 27 e4 95 01 c0 bc 0b 9e bc 39 0b d1 bf
       -2.198189077805137 -0.2663101522413702
000710 cf 8d 27 83 cb 64 14 40 fd 98 e7 71 b7 ea 09 c0
       5.098432587899381 -3.2396077059557897
000720 49 a3 3d af 5c d8 ff 3f 70 11 fe cc f1 5f f8 3f
       1.9903227658598601 1.5234239585416525
000730 56 6b 14 6f 35 00 b4 bf 0f 4e b3 6d f0 72 f4 bf
       -0.07812818490894577 -1.27806132175181
000740 56 b9 6a e5 98 d1 08 c0 5b 00 7e ea 34 2a d6 3f
       -3.1023424075312205 0.3463260927164861
000750 4e be 19 18 05 4d fa 3f 2c 7d 5e 9a 25 00 10 c0
       1.6438036862781646 -4.000143444077633
000760 82 b4 80 25 6c ad 07 40 cb 62 f0 70 da 0d 07 40
       2.9596789293196375 2.8817642997131308
000770 c2 37 5b 0a 61 e9 da bf b8 0f 2c 88 84 55 20 40
       -0.42049432765349704 8.167026763323392
000780 ef 2c d1 58 0c 8d 00 40 b8 bb 94 22 aa 71 d4 bf
       2.068871206172495 -0.3194375360207533
000790 cf b3 d1 6b f8 d7 27 40 84 76 27 fb 86 48 f8 bf
       11.921817178104815 -1.5177068529805249
0007a0 7b 7e 09 aa c7 ed b6 bf 97 76 6f 97 d6 2e 07 40
       -0.08956573392196703 2.8978702383890993
0007b0 f0 68 16 a4 98 87 0f 40 84 22 71 8d 84 8f 15 c0
       3.9412091082896197 -5.3901540851881045
0007c0 6c aa b6 f0 84 c6 0b 40 48 b5 cd 83 40 84 13 c0
       3.4719332509751464 -4.8791523546509055
0007d0 cb ce f7 83 90 a9 19 40 f5 03 73 7e aa 93 01 c0
       6.415590345382678 -2.1971025351381237
0007e0 6a 1d 55 44 93 25 18 40 2a 10 40 c3 e3 23 e2 bf
       6.036694591231347 -0.5668810666543369
0007f0 39 ec 50 a5 f5 12 ec bf ee 6f b2 78 fd 74 ef 3f
       -0.8773143986539998 0.983031020866745
